PyTorch/Models/12_MODEL.pth (torch, 34439 bytes, 10 tensors)

conv_block_1.0.weight f4 [10, 1, 3, 3]
000000 e3 e2 0e 3e e8 3d 38 bf da 14 33 bf 56 86 0d 3d
       0.13953738 -0.7196946 -0.6995369 0.03455194
000010 b3 a5 46 bf f8 02 c0 be 2d bb e3 3e dc 03 81 3e
       -0.77596587 -0.37502265 0.4447874 0.25198257
000020 6e c4 70 3e 94 52 01 3e ed 53 94 3d 18 f0 bc be
       0.23512432 0.12629157 0.0724257 -0.36901927
000030 7e 47 64 3b de f8 1c 3f fd c0 c8 3e 0e ed f9 be
       0.0034832652 0.6131724 0.39209738 -0.4881367
000040 4a 5c fb 3e 48 40 cc 3d 47 5f 00 3f 38 82 8e 3e
       0.49093848 0.09973198 0.5014538 0.27833724
000050 37 91 02 bf 1d 42 76 3e 45 f5 c8 3d 87 64 00 be
       -0.5100283 0.24048658 0.098124065 -0.12538348
000060 9f 46 a2 be a4 1c d0 3e ba 12 8e be 37 d8 ca be
       -0.31694505 0.4064685 -0.27748662 -0.39618084
000070 ce 0a 9c 3e 91 9c 0d 3f 87 c7 1f bf 79 48 97 be
       0.30476993 0.55317026 -0.6241383 -0.2954748
000080 a4 ac 08 3f be 03 35 be 24 ea d9 be 06 15 38 3f
       0.5338843 -0.17677209 -0.42561448 0.7190708
000090 02 4a da 3e 78 ad fc 3e a7 2a df be e3 a0 b6 be
       0.42634588 0.49351096 -0.4358723 -0.35669622
0000a0 84 3b 90 3e 4f 2c 1b bf 93 d4 c7 bd a9 75 50 3e
       0.28170407 -0.60614485 -0.09757342 0.20357384
0000b0 06 b3 eb bc a5 1c 8d bf a6 aa 80 bf aa 49 10 bf
       -0.028771888 -1.1024367 -1.0052078 -0.563624
0000c0 a0 7f 92 bf 3a ef 93 bf 85 f9 41 bf f8 d8 d0 3e
       -1.1445198 -1.1557381 -0.7577136 0.40790534
0000d0 97 31 39 be 38 ee 92 be 2a 89 84 3e 31 58 dd 3e
       -0.18085323 -0.2869737 0.25885898 0.43231347
0000e0 0c 70 65 be c4 93 86 be 09 f6 e5 3e 9e 69 0e 3e
       -0.22406024 -0.2628461 0.44914272 0.13907477
0000f0 e3 fe 07 bf 75 f9 e2 bd 4a a0 b2 be 99 05 1f be
       -0.531233 -0.110827364 -0.34887916 -0.15529479
000100 e9 c5 b9 be dc 58 27 bf 48 78 74 be a9 73 80 3e
       -0.36283806 -0.65369964 -0.23874009 0.25088242
000110 9b af 55 3e 69 86 f3 3d 73 ae e9 3e ee 8b 53 3c
       0.2086777 0.11890871 0.45640907 0.01291178
000120 ca a4 25 3e 03 a4 ea 3d 2a d7 79 bc 76 64 9f be
       0.16176143 0.11457064 -0.015249053 -0.31131333
000130 8a 11 88 bb a1 9d 9f 3d ce d8 db bd 1d 10 09 bb
       -0.0041524814 0.07793737 -0.107347116 -0.0020914145
000140 c2 fd 89 be f8 a2 a3 be 69 f6 89 3e 91 4f 4e be
       -0.26951414 -0.31960273 0.2694581 -0.2014754
000150 85 c0 59 be ca 57 9a be 1b 1e 8c bd d2 8d e0 3d
       -0.21264847 -0.30145103 -0.0684168 0.1096455
000160 e4 3f 93 3e 65 87 69 bd
       0.28759682 -0.057013888

conv_block_1.0.bias f4 [10]
000000 c0 2a 1c bc 38 de 17 be dc 17 17 3d 4a 83 db 3d
       -0.009531677 -0.14830863 0.03688799 0.10718401
000010 cd 0c f2 bd dc 26 d3 3e 90 ee 03 3e 39 83 f7 bd
       -0.11818848 0.41240585 0.12883973 -0.120855756
000020 18 e1 c6 bd 4c 0c f8 bd
       -0.09710902 -0.121117204

conv_block_1.2.weight f4 [10, 10, 3, 3]
000000 06 51 04 be 12 8f 05 be 7f 00 09 bd cf 65 2d be
       -0.12921533 -0.13042858 -0.03344774 -0.16933368
000010 f3 7d 6c be 49 33 60 be 5f 1d f3 be 40 b4 04 be
       -0.23094921 -0.21894564 -0.47483346 -0.12959385
000020 68 98 b7 3c fd 24 40 3e 7b 87 da bd c3 7f 27 3d
       0.02241154 0.1876411 -0.10670372 0.040893327
000030 cb 20 6c 3e 4b bb 91 3d e0 4b 7c 3d db 87 30 3d
       0.23059385 0.071158014 0.061595798 0.043098312
000040 02 d6 16 3e 7c e0 98 3e 7c 99 3c be 4b 54 dd 3d
       0.14730075 0.29858768 -0.18417925 0.10807093
000050 3c 97 3b be ad 26 99 3d d4 b4 da 3b 4e 8b b6 3c
       -0.1831941 0.0747808 0.0066743884 0.022283223
000060 06 d9 1e 3e 75 ac ae 3d a2 7a ee bc 8f 41 61 be
       0.15512475 0.08528987 -0.02911121 -0.21997665
000070 ca d4 05 be 01 2a 90 bd 0a 7a 45 3e 84 cf 3e be
       -0.13069454 -0.070392616 0.19284835 -0.18633848
000080 e7 17 3c be 77 3e df bc ac 6f df 3d 28 b4 57 be
       -0.18368493 -0.027251465 0.109099716 -0.21064818
000090 60 05 fd bd da b8 aa be 17 c0 3e bd 10 2d 31 3d
       -0.12354541 -0.33344156 -0.04656991 0.043255866
0000a0 80 1a 55 be 43 63 3e bd 99 d6 fe bc 0d dc 13 be
       -0.2081089 -0.046481382 -0.031108188 -0.14439411
0000b0 3a db 39 be 7f 4b 48 bd 3c 1b 1b be 08 ef e1 3d
       -0.18150035 -0.048900124 -0.15147108 0.1103192
0000c0 81 48 eb bd af 7b 0c bf 03 02 33 be 41 28 95 3d
       -0.114884384 -0.54876226 -0.17481236 0.072830684
0000d0 64 65 69 bc dc ff 9a be 01 fb 9b 3d b3 19 73 be
       -0.014245365 -0.3027333 0.076162346 -0.23740272
0000e0 17 51 2b be 13 89 3b bd ef 6b ed bd de 95 49 be
       -0.16730152 -0.04578502 -0.11592852 -0.19686076
0000f0 47 66 2c 3e fb fc 9c 3c 9a 38 10 3e 8d 06 52 be
       0.1683589 0.0191636 0.14084092 -0.20510311
000100 e8 f4 09 be ef ba 67 3d 1a 97 43 bb e9 1f 0a be
       -0.1347233 0.05657476 -0.0029844702 -0.13488735
000110 02 fa 69 bc 9d 9c 10 3c 3f cb db 3c 1b 7b e6 3c
       -0.014280798 0.008826402 0.026830314 0.028134873
000120 65 37 c8 3c 65 2f 86 3d 78 35 28 3c c5 6f c8 bd
       0.024440477 0.065520085 0.010266654 -0.09786943
000130 06 8a c1 3b 65 7e 4d 3b 0c b0 9f bd 3e 5d 9c 3a
       0.0059063463 0.0031355855 -0.0779725 0.0011929644
000140 ed 26 ad 3c f9 10 91 bd 24 4e 40 bd 82 65 f6 3c
       0.021136725 -0.070833154 -0.04694952 0.0300777
000150 79 63 21 3b 40 2c 88 3d 1a b2 f7 3d 1b b5 a2 bd
       0.002462594 0.06649065 0.12094517 -0.079446994
000160 ca ab 8d bc f1 98 b5 bd c3 44 32 be 01 89 f2 bd
       -0.01729383 -0.08867062 -0.17409043 -0.11842538
000170 73 97 56 bd d5 0c 3a be 62 03 2f be ac 69 d2 bc
       -0.052390527 -0.18168958 -0.17091134 -0.025685154
000180 c5 b1 3a be 2e 6f 37 3d 40 0a 9a 3c 67 ed 70 bc
       -0.18231876 0.044783764 0.018803716 -0.014705039
000190 11 92 4d be 55 33 3e be c0 3e a5 be ab ea 88 be
       -0.20075251 -0.18574269 -0.32274437 -0.26741537
0001a0 dc c7 87 be 19 67 0c be 50 7b 85 be 9b 07 75 be
       -0.26519668 -0.13711204 -0.26070642 -0.23928683
0001b0 02 9a 9a 3d 19 44 59 3e c9 f6 08 3e e6 f3 6b 3e
       0.07548906 0.21217383 0.13375391 0.23042259
0001c0 0d dd 14 bc ce 20 f4 bd 86 e8 bc bc 40 3b df bd
       -0.009085906 -0.119203195 -0.023060095 -0.10899973
0001d0 d3 4a d1 bd 72 4a 13 be 9c 5f 36 be 5f 6a 3b bd
       -0.1021935 -0.14383867 -0.1780991 -0.04575574
0001e0 0a 9c 04 be 21 c5 00 3c 3b 94 87 bd 01 6a d6 bd
       -0.12950149 0.007859499 -0.066200696 -0.104694374
0001f0 66 f5 05 3d 4d 50 84 3d 54 61 fa 3c c2 51 9b 3c
       0.032704733 0.06460629 0.030563988 0.018959884
000200 ef 37 b6 bc 86 f2 d9 3d 1e 26 15 3e 71 87 20 bd
       -0.022243468 0.10641961 0.14565322 -0.039191667
000210 bf 14 d2 bd 42 61 9e b7 81 f1 e3 bd 44 18 aa 3c
       -0.10257863 -1.8880357e-05 -0.111300476 0.020763524
000220 53 48 e0 3c 8d 45 7b bd fd f0 c3 3d 58 e2 73 3e
       0.027378237 -0.061345626 0.09567449 0.23816812
000230 b6 da 7d 3e 51 ae 87 3d 6f da 94 3e cc 19 6e 3e
       0.24790463 0.06625045 0.29072902 0.23252028
000240 a1 95 12 bb bd bf 01 3e cb ae 8e 3d 11 ad 99 3d
       -0.0022367018 0.12670799 0.06966933 0.07503713
000250 ce 37 25 3d 07 79 a5 bd a5 f2 2f be 64 39 b5 bd
       0.040336423 -0.08079725 -0.17182405 -0.08848837
000260 73 61 a6 bd 79 2e f6 3c 59 fa 09 3d 23 cd af bc
       -0.08124056 0.030051457 0.033686016 -0.021460121
000270 28 86 dd bd df 0c 13 3d bb b1 b7 3c 15 25 ec bd
       -0.10816604 0.035900947 0.022423616 -0.1153051
000280 93 bb c1 bd 6c 88 f0 bd be 0b 69 3d 8f d8 78 bd
       -0.09459605 -0.117447704 0.056895964 -0.0607534
000290 db f5 01 be bc 92 bc 3d 90 48 63 bc ad f9 a5 3d
       -0.12691443 0.09207675 -0.013872281 0.081042625
0002a0 f8 ad 87 3c ff 2b 5c bd d7 70 1d 3d 18 e1 d4 bb
       0.016562447 -0.053752895 0.03843769 -0.00649656
0002b0 54 19 47 bd 11 af 2b 3d 3a 36 ad bd 58 cf 78 bd
       -0.04860814 0.041915003 -0.084576085 -0.060744613
0002c0 61 35 16 bc 32 e1 47 3d ed f2 93 3d c8 61 97 bb
       -0.009168 0.048798747 0.07224069 -0.0046198107
0002d0 ad dd bd 3d ab d2 cd bc d9 e5 bd bd 8a 93 ba 3d
       0.09270797 -0.025124868 -0.092723556 0.09110172
0002e0 91 67 4c 3d cc 79 f5 bd 04 c4 1c 3e 6e ad cd bb
       0.049903456 -0.119861215 0.15309149 -0.006276778
0002f0 8b f6 26 bb 6c 71 36 bd ed 79 d1 bd bd 31 9a 3e
       -0.002547654 -0.04454176 -0.102283336 0.30116072
000300 10 18 3b be 86 cb 01 be 90 d7 35 3e dd f7 fd 3d
       -0.18270898 -0.12675294 0.17758012 0.12400792
000310 47 01 34 3e d5 c0 00 be 16 62 8e bd a5 5a 8b 3d
       0.17578612 -0.1257356 -0.06952302 0.068043984
000320 a2 c8 1f 3e 8c 09 42 bc 10 8b b3 bd 56 64 4a be
       0.15603879 -0.011843096 -0.087667584 -0.19764838
000330 73 fa 88 b9 e3 a5 e8 bc 72 5f 23 be dd b0 00 3a
       -0.0002612654 -0.028399413 -0.15954378 0.0004909167
000340 88 91 09 3e 4f ce 87 3e 20 8f 8f bd 38 3c bd bd
       0.13434422 0.26524588 -0.07009721 -0.092400014
000350 c1 45 d7 3e 9f b8 a7 3c b7 22 2e be 42 4c 7b 3e
       0.42045406 0.020473776 -0.1700543 0.24540809
000360 b2 8f de bd 67 d3 e2 3d 79 e1 ac 3d 0c 85 f5 bd
       -0.108672515 0.11075478 0.08441443 -0.11988267
000370 ca 34 4b 3d 81 23 83 bd 2f 9d 09 be c9 a5 b0 bd
       0.04961089 -0.06403256 -0.13438867 -0.08625371
000380 77 13 02 3e 93 0d 32 3d 7e ff e5 bd 6a 1c b5 bd
       0.12702738 0.043469977 -0.11230372 -0.0884331
000390 8f 83 3f 3e 94 6e 96 3c c4 d2 fb bd 0b d1 36 3d
       0.1870253 0.018363275 -0.1229606 0.044632953
0003a0 b3 c5 81 3e 2c 9d 37 3d 75 3e 4b bd 48 a7 22 3e
       0.25346145 0.044827625 -0.04962011 0.15884125
0003b0 65 cd d9 3d c8 6b b8 bc 87 5e e5 3d 08 a4 00 3d
       0.10634879 -0.022512332 0.1119967 0.031406432
0003c0 b4 88 56 bd cf 67 4b bd fc 45 00 be a3 c8 3c be
       -0.052376464 -0.049659546 -0.12526697 -0.18435912
0003d0 92 92 a4 bc 1a 99 ca bc 8b 71 05 bc ef 94 a6 3d
       -0.020089421 -0.024731208 -0.008144747 0.081338756
0003e0 cd 7c 07 3d 0c e8 da 3c d5 4f ab 3d e8 00 b5 bd
       0.033078004 0.026721977 0.08364836 -0.088380635
0003f0 b4 20 e0 3c 6f c1 2c 3d 63 dd bd bd 37 0c a9 bd
       0.027359344 0.04217666 -0.09270742 -0.08254283

conv_block_1.2.bias f4 [10]
000000 df 21 ee 3e 61 92 87 3e b5 93 f6 bc ee 8c 8f 3d
       0.46510217 0.26478866 -0.03009973 0.07009302
000010 aa 33 f7 bd 9a d5 14 be 65 6b 83 3d 36 1d 8e 3d
       -0.12070401 -0.14534608 0.06416968 0.06939165
000020 50 22 de 3b d3 25 cd bd
       0.0067789927 -0.1001698

conv_block_2.0.weight f4 [10, 10, 3, 3]
000000 17 29 ab be 03 eb 0c bf fd a2 f7 3e 6d 70 a7 3d
       -0.33429787 -0.550461 0.48366538 0.081757404
000010 e3 eb 03 bf a9 b1 23 3e 7a 8a 66 3e 50 30 a4 bd
       -0.5153181 0.1598574 0.22513762 -0.080170274
000020 10 4a 9b 3e b6 5f 3d 3e 7d aa bf 3d 3c 56 86 be
       0.30329943 0.18493542 0.0935869 -0.26237667
000030 a9 75 73 3d 7f 68 f7 3e 30 a9 73 3e dd 43 d2 be
       0.05943838 0.48321912 0.23795009 -0.410674
000040 15 4c 8d 3d 19 5e 2e 3c 31 70 76 3e 2b da 01 3e
       0.06899277 0.010642552 0.24066235 0.1268088
000050 e6 69 a5 bd 08 1e da bd 39 2c 93 3e 66 39 1f 3e
       -0.08076839 -0.10650259 0.28744677 0.1554924
000060 7c 1e 13 be c9 1b a6 be f6 ee 00 3c a1 c5 29 3f
       -0.14367098 -0.32443073 0.007869473 0.6631718
000070 e9 a3 4f 3e 7e 8b c7 be 6a 33 db 3e c8 39 ee 3e
       0.2027737 -0.38973612 0.42812663 0.4652846
000080 55 bc 0d be 59 63 ad be f2 b4 9d 3d 67 17 51 be
       -0.13841374 -0.3386486 0.07700528 -0.20419084
000090 57 4d 07 bc 67 29 2d bc f0 38 37 3b 63 4e 1b 3d
       -0.008258185 -0.010568953 0.0027957521 0.037916552
0000a0 52 4c 1d 3d 02 71 49 bd 42 38 71 3d 6e 30 b8 bb
       0.038402863 -0.04918004 0.058891542 -0.0056210076
0000b0 8c 6d 39 bd f7 9c f2 bd 2d a6 bb bd 0a 53 8e bc
       -0.045270488 -0.11846345 -0.09162555 -0.01737358
0000c0 0c 2a 2a be b7 45 a8 3d 7b 19 ab bd ae 57 ba bc
       -0.16617602 0.08216422 -0.083544694 -0.022746887
0000d0 8a 23 71 3d 0a 00 a6 bd ca bd b0 3e 22 43 3d bd
       0.058871783 -0.08105476 0.34519798 -0.0462066
0000e0 a4 a1 2f 3e 54 bd e6 3e 14 2c 4d be 68 61 ae 3d
       0.17151505 0.4506632 -0.20036346 0.085146725
0000f0 b5 58 49 be 6a a4 a3 be 83 d0 94 be 85 e2 9c 3e
       -0.19662745 -0.31961375 -0.29065332 0.3064157
000100 7b 99 0c be 83 f5 84 be 5b b5 09 3e 1b 41 f7 3e
       -0.13730423 -0.2596856 0.13448088 0.4829186
000110 55 fb 22 bd b1 1c 6b be a6 39 05 3e 75 2e 06 3e
       -0.03979047 -0.22960164 0.13010272 0.1310366
000120 8d f7 e2 bd 5b 66 17 3e 9e 17 f9 3d d3 d9 80 3b
       -0.11082373 0.1478514 0.12162708 0.0039322167
000130 b9 2e 63 3d 10 91 01 bb 3f b2 b1 bd e9 b5 da bb
       0.05546448 -0.0019770302 -0.08676576 -0.0066745174
000140 a2 8d ec bd 66 61 85 bd a3 50 65 bb 69 ed a7 3c
       -0.11550452 -0.06512718 -0.003499069 0.020498948
000150 72 52 0c bd 86 82 39 3c 2a ed b7 bd da d9 30 bd
       -0.034258313 0.011322623 -0.08980782 -0.04317651
000160 74 f6 bd 3d 4b 8d 57 3d 89 70 82 be 3e 39 31 bc
       0.09275523 0.05262498 -0.25476483 -0.01081687
000170 6d 91 5b 3b 91 11 bc 3d 2f ea d5 3d ae 69 b1 3d
       0.0033503429 0.09183038 0.104450576 0.08662735
000180 46 4b 6b 3c 9f 1e 57 3d e3 db 83 3a b5 75 cf bc
       0.014361208 0.052519437 0.0010060038 -0.025324682
000190 ef 99 dd bd ce db 12 be 81 0f ad bc 47 92 c9 bd
       -0.10820376 -0.14341661 -0.021125557 -0.09842353
0001a0 0f 8c 15 3e 3a 47 93 3d db ee a4 bd 36 93 09 be
       0.1460421 0.0719132 -0.080533706 -0.13435063
0001b0 df e9 50 3d dc 49 38 3c df a2 cd bd 7c f6 0c 3e
       0.051004287 0.011248078 -0.10040831 0.13765901
0001c0 ab 2d cb 3d d5 4e 73 bc aa 90 80 3c 9e 9a 09 3c
       0.0992082 -0.014850338 0.015693981 0.00839868
0001d0 2c 8d 48 be 7e 58 d2 3c 63 bc 8f be d2 6e e0 bd
       -0.19585103 0.025676962 -0.28073415 -0.10958637
0001e0 c9 0f 6b bd 88 35 dc 3d b9 a8 3c 3e 95 db 3d 3d
       -0.0573881 0.10752398 0.18423738 0.046351988
0001f0 43 86 8f bd 07 95 66 be 52 81 74 bd 6a 0b 61 bb
       -0.0700803 -0.22517787 -0.059693642 -0.0034339079
000200 d4 33 b6 3d 58 ab 81 3d 30 76 8f bd 19 98 a6 bd
       0.08896604 0.06331509 -0.07004964 -0.08134479
000210 65 09 b1 3a fe eb 11 3d 42 f4 8a 3d e8 41 7a 3c
       0.0013506828 0.03562545 0.0678487 0.015274502
000220 b7 8c cd bc 3f 6b 10 bc 3a 03 79 3d fe 2e 7a bd
       -0.025091512 -0.008814632 0.060794093 -0.06107997
000230 9b 04 de 3c 41 7c 10 bd f8 b3 12 be 3c ea ab 3d
       0.027101805 -0.035274748 -0.14326465 0.08394286
000240 79 db 33 be 16 81 7e bc 62 32 f3 3d 7b 2d 33 3e
       -0.17564191 -0.015533706 0.11874844 0.17497818
000250 3a 50 ca 3e 44 8b 09 bd 74 75 8e 3e 36 d0 3e 3e
       0.39514333 -0.03358008 0.27823985 0.18634114
000260 b9 31 69 be 9e 93 7e bc 0b 06 26 bd 62 ca 23 bd
       -0.22772874 -0.015538124 -0.040533107 -0.03998793
000270 06 1b 10 be f7 58 b9 bd a5 03 33 bc 03 dc 1f 3d
       -0.14072809 -0.09050172 -0.010926162 0.03902818
000280 e7 e1 c8 bd 5c 41 b9 bd 07 92 93 3c f4 a4 88 3d
       -0.098087125 -0.090456694 0.018013967 0.06672087
000290 d7 a6 ac 3c b4 6e 9a 3d b8 68 86 3c 6e d9 9c bc
       0.02107565 0.07540646 0.016407356 -0.019146647
0002a0 f4 41 e9 bd 32 4e 3a 3d bb 8b f0 bd ef d6 c6 bd
       -0.11389533 0.04548473 -0.117454015 -0.09708964
0002b0 33 84 a1 3d 37 59 55 bd 9d cf 92 bd 3e ff c2 3d
       0.07886543 -0.052087035 -0.07168505 0.0952134
0002c0 ef a2 cc 3d 08 c8 c9 bd 0e c7 78 bc 03 90 4c 3d
       0.099920146 -0.09852606 -0.015184177 0.049942028
0002d0 a3 be 0b 3c cb f6 6d bb fc 8a 62 3d 0e b5 9f bd
       0.008529338 -0.003631043 0.055308327 -0.07798205
0002e0 c6 8e c6 bd c6 53 9f bd d5 9d 51 3d 5d 28 dd 39
       -0.096952006 -0.077796504 0.05117591 0.00042182478
0002f0 04 93 cf bd c5 24 2e bd 30 79 c6 bd 37 f0 b8 3d
       -0.10135463 -0.042515535 -0.096910834 0.09030192
000300 33 a8 3d bd d7 d5 0f 3d 42 9f 4d bd a6 b5 ac 3c
       -0.046302985 0.035116043 -0.05020071 0.02108271
000310 b3 69 4f bd ef f3 6b bc 86 17 b6 3d 16 e4 b6 3a
       -0.050637912 -0.01440142 0.088912055 0.0013953473
000320 ee 3d a0 3d 65 1e 75 bd dd 41 fd 3c f9 37 21 3d
       0.07824312 -0.05984344 0.030915195 0.03936002
000330 a1 8d 3d bd 10 a7 ca bd e9 3f 9f bd fa b4 54 3d
       -0.046277646 -0.09895146 -0.07775862 0.051930405
000340 89 05 35 3c 1b ab 0e 3d 69 00 c3 bd 8e 04 c3 bd
       0.011048683 0.034831148 -0.095215626 -0.09522353
000350 e4 8b 66 bd b8 90 ae 3d 7e 5f d0 bd c9 03 13 3d
       -0.056285754 0.08523697 -0.10174464 0.03589228
000360 86 1b a7 3d 86 64 da bc 9a b5 4d 3d 6a eb 46 bd
       0.081595466 -0.026659261 0.050222017 -0.048564352
000370 a9 27 c5 3d c8 77 ab 3d c9 e4 e2 3c 1c 47 4c bd
       0.09626705 0.08372456 0.027696984 -0.049872503
000380 7e bc 18 3d ec e8 a3 bd 30 10 a7 3b dc d8 d0 bc
       0.037289135 -0.08003411 0.0050983652 -0.025494032
000390 ec 4b 9f 3d 05 96 cb 3d df 47 83 3d 9d 33 43 bd
       0.07778153 0.09940723 0.06410193 -0.047656644
0003a0 e3 2d a1 bd 46 a7 9f bd 0e 79 19 bd 93 97 bf bd
       -0.0787008 -0.07795577 -0.037468962 -0.09355082
0003b0 3e 08 cf 3a 4c 32 cf bc 0c a3 b3 bd 25 af 5e bd
       0.0015795303 -0.025292538 -0.08771333 -0.05436625
0003c0 0a 6b b9 3b 4a bc 52 3c 20 6a a4 3d 81 65 7d 3d
       0.005658512 0.012862274 0.08028054 0.06186438
0003d0 d5 43 ae bd 09 68 af bd f6 e3 77 3d 4b 41 f7 ba
       -0.08509032 -0.08564765 0.060520135 -0.0018864063
0003e0 0a 0d 3c bc ce ae a6 bd a3 cc 44 bc c4 5a 8f 3d
       -0.011477718 -0.0813881 -0.01201168 0.06999734
0003f0 2d 12 02 3d f0 cf 8c 3d 95 62 b3 bd 73 b6 a2 3b
       0.031755615 0.068755984 -0.087590374 0.0049655973

conv_block_2.0.bias f4 [10]
000000 72 88 b9 be 54 21 61 3d 7f 21 58 3b 23 a7 c4 be
       -0.36236912 0.054963425 0.003297895 -0.38408765
000010 a6 53 d3 3e 6a e1 98 3e b4 e3 41 3f e2 92 c3 bd
       0.41274756 0.29859477 0.7573807 -0.095495
000020 7e 52 ee bd 64 88 96 3d
       -0.11636828 0.07350233

conv_block_2.2.weight f4 [10, 10, 3, 3]
000000 a4 e8 f4 3e a5 f8 15 bd 0f 0d c3 3d f0 45 d1 3e
       0.4783374 -0.03661408 0.09523975 0.4087367
000010 a4 ab fa bd 87 a5 b9 3b fc f3 2b be e4 9b 54 3e
       -0.12239769 0.0056654844 -0.16792291 0.20762593
000020 0b 58 a1 bb 34 81 ae bd a5 cf e6 bd f5 2d b8 3b
       -0.0049238256 -0.08520737 -0.11270074 0.005620713
000030 89 45 4a bd c3 39 90 3c 4e a3 39 bc d5 1c 45 bd
       -0.04938272 0.017605668 -0.011330439 -0.0481232
000040 ec b5 b3 bc f7 8f 89 3b c2 d8 d2 bd 2d 5b 46 bd
       -0.021937333 0.00419807 -0.102952495 -0.048426796
000050 01 6c 4f 3d be 6d 19 bd e7 d3 87 3d f8 c0 b4 3d
       0.05064011 -0.037458174 0.06632214 0.08825868
000060 cb 45 ce 3d 71 71 d2 3d 55 5a 9b bd 52 ad 34 be
       0.10071906 0.102755435 -0.07585589 -0.17644241
000070 c4 20 bd bd dd 22 db 3c 4f dd 32 bd 92 21 f4 bd
       -0.09234765 0.026750023 -0.043668088 -0.119204655
000080 b4 be 38 bd dd 74 54 3e 62 48 dc bc 7d 8c 9d 3d
       -0.045103744 0.20747705 -0.026889984 0.07692812
000090 ba 48 21 be 23 3a f6 bd a4 db 56 be 11 9d 83 3b
       -0.15750399 -0.120228074 -0.20982224 0.0040165265
0000a0 0f b1 5a be 6f 1b 83 be a7 49 b0 bc 6a 17 0b be
       -0.21356605 -0.25606868 -0.021519495 -0.1358315
0000b0 a9 bc ec bd 1e a7 2f 3e 19 48 2b be 99 54 d6 3e
       -0.115594216 0.17153594 -0.16726722 0.41861418
0000c0 3f 7d 11 3e c5 47 b5 bd a5 9e 7d 3e a6 82 51 3d
       0.14207934 -0.088515796 0.2476755 0.051149987
0000d0 40 ac 05 3e 9a 29 1e be 31 11 b0 be 09 ad aa be
       0.1305399 -0.15445557 -0.34388116 -0.3333514
0000e0 f4 c7 30 3d b7 34 90 be bc 67 fe be 4e 4e 40 be
       0.04315944 -0.28165218 -0.49688518 -0.18779871
0000f0 af 7e a2 3e 3a 36 68 be 05 38 af be d7 c4 46 bd
       0.31737277 -0.22676936 -0.34222427 -0.048527565
000100 8d a8 57 3c 2c d2 87 3d ad 5c ef bc 36 08 f2 bc
       0.013162744 0.06631884 -0.029218996 -0.02954493
000110 bf f0 91 3d 62 b8 cf bb 39 70 79 bd ff 7c ed bd
       0.07125997 -0.006339119 -0.06089804 -0.11596107
000120 1e 72 81 3d 48 75 ad 3d aa 5f df bd 85 b9 d5 bd
       0.06320594 0.08469635 -0.10906918 -0.10435776
000130 17 b0 ab bc af 54 0b bd d1 f9 c8 3c 8b aa 25 bd
       -0.02095799 -0.034016307 0.024533184 -0.040445846
000140 f4 e5 a7 3d eb 26 0a bd 8c db b6 be f1 49 39 bd
       0.08198157 -0.03372852 -0.35714376 -0.04523653
000150 da 40 59 be 9a 36 e2 be 3d 2a 8b 3d 6f bb 63 be
       -0.21216145 -0.44182283 0.06795166 -0.22239469
000160 1e 55 c4 be 26 94 3e bc 37 b7 42 be 9a b4 01 bf
       -0.3834619 -0.011632001 -0.19015203 -0.506662
000170 56 13 bf be 7c 37 6b be 83 6b d2 3e df 60 dd bc
       -0.3731944 -0.22970384 0.4109765 -0.02702373
000180 17 47 c4 be c9 0e 2c bd de 58 e3 3d 13 2a 3d be
       -0.38335487 -0.042006288 0.111009344 -0.18473081
000190 0f c3 37 3e 78 20 d2 3c b2 e4 15 3e 21 56 87 3e
       0.17945503 0.025650248 0.14638022 0.264329
0001a0 61 47 a5 3d c8 6b 82 be 90 55 8a 3d 88 31 21 be
       0.08070255 -0.25472856 0.06754601 -0.15741551
0001b0 f0 ed 2b 3d d3 a5 a6 3c d9 f7 97 3b 2e ea 98 3d
       0.04197496 0.020342743 0.0046377 0.07466541
0001c0 9b 1d d5 bd b5 7c 05 bd 9d 1e 77 bd 7f f8 90 3d
       -0.104060374 -0.032589633 -0.06033193 0.07078647
0001d0 d5 f7 c8 bc 19 5d 79 bd f8 fc 77 be 0a 73 5d be
       -0.024532238 -0.0608798 -0.24217594 -0.21625915
0001e0 f7 dd 82 3e 5f 85 ac 3d 4f d8 14 3e 08 21 0a bd
       0.2555997 0.08423876 0.1453564 -0.033722907
0001f0 72 ab 71 be 5d 75 88 bc 32 32 c2 be 86 68 83 3e
       -0.23600557 -0.016657526 -0.3792892 0.25665683
000200 9d 2b 9e be fc 2a 07 bf 7d d1 1c 3d f7 8f a6 3d
       -0.3089265 -0.52799964 0.03828572 0.08132928
000210 e6 e9 43 bb d4 a1 20 bd 70 19 66 3e d5 96 b5 3d
       -0.0029894053 -0.03921683 0.22470641 0.088666596
000220 d5 89 07 bf f9 42 cd 3d df ea 08 3e eb 47 8e 3c
       -0.5294469 0.1002254 0.13370846 0.017368278
000230 95 01 cc bd 73 78 1e bc 83 0b 54 3e 7d 35 a3 bd
       -0.09961239 -0.009672272 0.20707516 -0.079691865
000240 c0 6c 4a bc b7 32 9e be 1c be 8f 3e 3f 47 8b 3e
       -0.01235503 -0.30898067 0.2807473 0.27202794
000250 e8 b6 a7 be 96 6d 43 3d 89 a2 17 bd 52 c6 86 be
       -0.32756734 0.04771193 -0.03702024 -0.2632318
000260 52 b5 78 be 7d 46 4d be e1 d9 54 3d 7d 57 ed 3b
       -0.24287918 -0.2004642 0.051965598 0.0072430954
000270 51 ad be 3d 81 c3 e3 3a 45 fa 04 3d 3f f7 ad bd
       0.09310401 0.001737699 0.032465238 -0.08494424
000280 3f db 9f bd 1e e5 fe bd 7b 16 be bd 7b ff 48 3d
       -0.0780549 -0.124460444 -0.092816316 0.04907177
000290 c3 40 be 3d 01 43 c6 3d fe 2e a1 bd 92 73 89 3d
       0.09289696 0.09680749 -0.07870291 0.067114964
0002a0 10 d6 2e bd 02 2a 9b bc 4b c6 59 3d 71 81 f7 bc
       -0.042684615 -0.01894093 0.053167623 -0.03021309
0002b0 1b 75 3d 3e 36 fb 08 be cd 54 97 be d9 a4 79 3e
       0.18501703 -0.1337708 -0.29556885 0.2437929
0002c0 58 f2 a8 bd ce 6b 78 be 94 5f 63 3e 40 27 a7 3e
       -0.082493484 -0.24259874 0.22204429 0.32647133
0002d0 0c 48 82 bd 63 52 26 bd a7 11 6e be 12 68 75 3d
       -0.06361398 -0.040605914 -0.23248921 0.059913702
0002e0 ef af 94 3d d6 d0 af bd 68 a0 64 3e f3 14 9f 3c
       0.07260119 -0.08584754 0.22326815 0.019419169
0002f0 b9 13 76 be ef 94 79 3d 3b b5 b7 bc 12 82 07 be
       -0.24030961 0.06093305 -0.022425285 -0.13233212
000300 14 d6 4d 3d db 16 bf bd e5 9d 92 bd 65 4b f2 bd
       0.05025299 -0.09330531 -0.07159022 -0.118307866
000310 32 86 bc bd da 3f b6 3c d4 ae 51 bc 91 25 e6 3c
       -0.09205283 0.022247244 -0.01279803 0.028094085
000320 f3 54 76 bd cc e3 24 bd ab cc 89 3c c6 1d 67 bc
       -0.060139608 -0.040256307 0.016821226 -0.01410622
000330 8c 95 ca bd ca 4a 83 bd d4 80 af 3d 08 65 d6 3b
       -0.09891805 -0.06410749 0.08569494 0.0065428056
000340 68 ca 2a 3c 50 0e 74 3d 7a 93 9b bd 2f 93 9f 3d
       0.010424234 0.059583962 -0.07596488 0.07791745
000350 cc 38 8e 3d 30 77 f8 bd 7d e2 b1 3d 68 ff 0d bb
       0.06944427 -0.12132108 0.08685777 -0.0021667127
000360 85 a8 3c be 36 b4 55 be f1 83 af 3e 9f ba d7 bd
       -0.1842366 -0.20869526 0.3428035 -0.10533642
000370 16 ea a5 3d 43 0e 70 3e 8b b3 d1 bd 3e f4 7e bd
       0.08101289 0.2344294 -0.10239323 -0.062244646
000380 e3 9b aa 3d 61 52 e4 3c 93 4b 89 be ac b3 c2 bc
       0.08330514 0.027871313 -0.2681547 -0.023767315
000390 e9 24 83 3d 63 8c 22 be 46 97 f3 3c c5 ea dd 3d
       0.064035244 -0.15873866 0.029735219 0.10835794
0003a0 4b e6 57 bd 28 b4 b2 3b 2d d8 89 bd 69 18 cb bd
       -0.05270986 0.005453605 -0.067306854 -0.09916765
0003b0 b1 36 a7 be f7 e4 15 be 9b 49 4c be 1d ea c6 bd
       -0.32658914 -0.14638124 -0.19949953 -0.09712622
0003c0 80 3f 55 be bf 0c 5b be 7f 97 7e be 44 df 8a bd
       -0.20825005 -0.21391581 -0.24862479 -0.06780866
0003d0 10 c5 b1 3a 7a 52 42 bc 52 3b d1 bd ec ba 29 3d
       0.0013562758 -0.011860484 -0.102163926 0.04143803
0003e0 e1 07 b8 bc 10 e6 72 3c f7 8e 63 3d 74 df 9d bc
       -0.022464694 0.014825359 0.055556264 -0.01927159
0003f0 67 5c 8e 3d 1a 7d bd bd 62 dd 81 3c fb ed ed 3c
       0.06951218 -0.09252377 0.015852634 0.029044142

conv_block_2.2.bias f4 [10]
000000 18 38 8c be 4d 0b 8e bd ec 99 ee bd 62 0c 5c 3e
       -0.27386546 -0.06935749 -0.11650452 0.21489099
000010 2e aa e5 bd 7e 11 2a be 37 4f 9c bd 18 d9 51 ba
       -0.112141 -0.16608235 -0.076322965 -0.0008005067
000020 9f a9 a2 be 84 d6 0d 3f
       -0.31770036 0.5540545

classifer.1.weight f4 [10, 490]
000000 59 d2 0f be 16 7f 85 bd 14 d5 18 3e 12 f4 52 3e
       -0.14045085 -0.0651838 0.14925033 0.20600918
000010 96 1c 0b 3d fd f8 7f be 8a b2 cb bd 41 67 d6 bd
       0.03396281 -0.24997325 -0.09946163 -0.10468913
000020 6c 00 ab be 89 83 10 3e 2d e4 e0 3d af ab 1d 3d
       -0.3339876 0.14112677 0.10981021 0.03849381
000030 cd 31 a1 bd 23 f6 a1 3c 31 58 4c bd 76 06 63 be
       -0.07870827 0.019770687 -0.049888793 -0.22170433
000040 17 e9 2c 3d 49 d9 ff 3d 14 03 b7 bc b9 06 8a be
       0.04221448 0.12492616 -0.022340335 -0.26958254
000050 b7 78 01 3c 83 65 73 3d 5d 76 53 3e 03 4d 1f bd
       0.007902316 0.05942298 0.20650621 -0.038891803
000060 41 e9 e8 3c 77 ab 57 bd 2e 4a 42 bc 70 e1 12 3e
       0.028431537 -0.052653756 -0.011858506 0.1434381
000070 95 30 67 3d 66 57 cb 3a ee a7 8f bd b8 25 2a bc
       0.056442816 0.0015513718 -0.07014452 -0.010384969
000080 97 f2 46 3d 3f 6e f7 3d 45 4d b0 3e 86 73 c0 3d
       0.048571195 0.12081575 0.34433952 0.09397034
000090 e2 ae 18 bd bc 5c 80 bd 4f 69 63 bd 7e b0 d4 3c
       -0.037276156 -0.06267688 -0.055520352 0.025963064
0000a0 f0 85 5b 3c 19 ae b2 3e 20 be e0 3d 7a 6c 16 bd
       0.013398632 0.3489845 0.109737635 -0.036724545
0000b0 92 50 4e 3d 9a 4f 64 bb 52 5f 13 3e f5 f9 84 bd
       0.050369807 -0.0034837485 0.1439183 -0.06492988
0000c0 09 3d 8e 3e ad de ec 3b 09 21 00 3e b4 40 72 be
       0.2778094 0.0072286935 0.12512602 -0.23657495
0000d0 2c f7 e6 bd 83 b4 f8 3c ac 06 2c 3e 9e f5 3a 3e
       -0.11277613 0.030359512 0.1679942 0.18257758
0000e0 18 1a aa 3d 28 66 4c be c8 a6 bf bd 5e 0c 8f bd
       0.08305758 -0.19960845 -0.09357983 -0.06984781
0000f0 c1 cd 68 3e 14 4d 15 3e 03 88 b9 bd 2d 1a 02 3e
       0.22734739 0.14580184 -0.09059145 0.12705298
000100 20 b4 4d 3e 0d bb d0 bb bd e9 68 be 38 33 fd bd
       0.20088243 -0.0063699544 -0.22745414 -0.12363285
000110 c4 d7 66 3e ed a6 25 3e 33 2b 11 3e a9 01 0b 3e
       0.22543246 0.16176958 0.14176635 0.13574852
000120 67 f3 0a 3e c2 2a 02 bd 35 98 9e bc 58 4d 34 3e
       0.13569413 -0.03177906 -0.019359687 0.1760763
000130 90 90 7a 3c ac e6 44 3d e2 d7 32 bd b7 36 8e bd
       0.015293255 0.04807155 -0.043662913 -0.0694403
000140 9e 9b 08 be 3f 58 00 bb 46 74 81 3e 59 86 2b bd
       -0.13340613 -0.0019583849 0.25284022 -0.04187617
000150 83 61 b4 bd 60 00 93 bc 5b 62 61 bd cd 4e 83 be
       -0.088076614 -0.017944515 -0.05502544 -0.25646058
000160 e8 55 96 bc 33 8e d7 3b 7c cf 2b 3d 31 d3 ec bd
       -0.01835151 0.0065782308 0.04194592 -0.11563719
000170 e1 6b 93 3d 39 56 ee bd a1 2e 82 be 89 56 1e be
       0.07198311 -0.116375394 -0.254262 -0.15462698
000180 43 7b ab be 43 54 02 3e b3 5b 5e bd f7 b8 27 3d
       -0.3349248 0.12727456 -0.05428667 0.04094788
000190 f7 34 54 3d a5 49 a6 bd 2d ff a1 3b da 63 23 3d
       0.051808324 -0.08119515 0.0049437494 0.039890148
0001a0 df 7b 3a 3d b9 41 0f 3e 98 a9 af bd a6 55 48 be
       0.04552829 0.13989915 -0.08577269 -0.19563922
0001b0 1b a7 4a bb b9 ff 4f bc 70 7b 60 3d bf 1c b4 3c
       -0.0030922357 -0.012695246 0.05480522 0.021986363
0001c0 ed 6b 45 3e 89 f0 43 bd fd 29 a4 bd f3 23 5b 3a
       0.19279452 -0.047836814 -0.08015821 0.0008359544
0001d0 6b 82 54 3d c9 65 ba 3c 8a 62 24 3d 7f b6 4f 3d
       0.05188219 0.022753613 0.040133037 0.05071115
0001e0 7c 99 c5 3b 27 17 12 3d 1e 4a 86 3a e5 cb 1c 3d
       0.0060302597 0.03566661 0.0010245477 0.038280386
0001f0 79 2d 9f 3d 28 c1 1e 3d 1e b9 2b bc d2 51 d2 3d
       0.07772345 0.038758427 -0.010481147 0.10269512
000200 fd b2 a9 bc 9a 38 52 bd 6b eb 38 3c bb 0d dd 3b
       -0.020715231 -0.05132351 0.011286597 0.0067460216
000210 d1 3c 31 3d 52 5e 3c bd 97 6e a3 3d 13 dc 24 be
       0.04327089 -0.04598839 0.07980078 -0.16099577
000220 6e 64 9b 3c 88 15 a4 3b 26 22 10 bd b2 c8 49 3c
       0.018968787 0.0050074495 -0.035188816 0.012315916
000230 eb 8d 81 bd 57 57 0d 3e 4d e7 21 be 11 6b a9 bd
       -0.06325897 0.13802849 -0.1581089 -0.082723744
000240 9a e0 89 bd 39 da 64 bb f2 26 0b 3d fc 4a ef bc
       -0.067322925 -0.003492011 0.033972688 -0.02921056
000250 06 54 d3 bd 3d a2 4f bd 4a 2e 21 3b b5 14 07 3e
       -0.103187606 -0.05069183 0.002459424 0.13191493
000260 60 3a 84 3d 7d 23 a9 3a 2a d8 7b bc d8 49 62 bb
       0.06456447 0.0012904253 -0.015371362 -0.0034528878
000270 b7 9e a3 3c c3 0f 46 bd c1 5b 77 3e b7 f5 86 3e
       0.019973142 -0.048354875 0.24156095 0.2635934
000280 c7 8c ac 3d 81 a9 5c 3e 4d ef ca 3e 4e f3 4c 3e
       0.08425289 0.21549036 0.39635697 0.20014688
000290 5d ac a3 3c 27 9e 1f 3e 8a 0b 82 3e 34 f1 01 3e
       0.01997965 0.15587674 0.2539943 0.12689668
0002a0 80 80 f3 3c fc 7c 83 bc 4c 0e 17 bd 93 ff 24 be
       0.02972436 -0.016050808 -0.03687887 -0.16113119
0002b0 bf 58 4a 3d 27 20 22 be 16 a1 0f be b7 67 17 be
       0.04940104 -0.15832578 -0.14026293 -0.14785658
0002c0 80 7f 81 bd 30 63 0b 3d 4a ea c9 bd 2d c4 f8 bc
       -0.06323147 0.03403014 -0.0985914 -0.030366981
0002d0 12 c3 79 be 34 87 33 be 15 d5 16 bd 42 d1 41 be
       -0.2439082 -0.17532045 -0.036824305 -0.18927482
0002e0 4d 6f ca 3d 73 49 d2 bd 2a fa 65 3d f4 ec 94 be
       0.0988451 -0.102679156 0.05614678 -0.2908703
0002f0 43 bc b9 bd 26 ac a4 3d 5e 42 9e bd fc dd bd 3e
       -0.09069111 0.08040647 -0.07727502 0.37083423
000300 02 fa 59 3e 6a 8d 9f 3a 77 52 c2 3d 4c 72 08 be
       0.21286777 0.0012172882 0.09488385 -0.13324851
000310 eb ad 75 3d 4e e3 e1 3c aa bb 45 bd 5a 79 42 3d
       0.059980314 0.027574208 -0.048274674 0.04747901
000320 b9 db 05 3d 34 3d 93 3e 31 ae d6 3d e8 01 79 3d
       0.032680247 0.28757632 0.10482443 0.060792834
000330 2b e4 72 be f9 6f 2c 3e cf ec 0a 3d 8f 54 48 3d
       -0.23719852 0.16839589 0.033917245 0.048908766
000340 c3 25 17 be 02 87 fc 3c fd cb 04 3d a4 fd 54 3d
       -0.14760499 0.030826095 0.0324211 0.051999703
000350 a2 15 9a 3c 81 81 d4 bd f0 d5 1d 3d ec 11 fe 3d
       0.018809143 -0.103762634 0.038534105 0.12405762
000360 54 80 e6 3c 0a 2a e6 3d 74 a8 3d bd 63 a3 91 bc
       0.028137363 0.11238487 -0.046303228 -0.017778104
000370 ab 89 97 3c f2 73 e3 bc c3 a9 9b be a9 51 24 3c
       0.018498262 -0.027765248 -0.30402955 0.010029235
000380 df 8a 76 bd e5 1d da bd f8 9a a2 3a ba e2 05 bd
       -0.06019103 -0.10650233 0.0012405803 -0.032686926
000390 18 9a ff bc 98 32 5e be 00 78 01 bd e5 a2 c5 bd
       -0.031201407 -0.21698987 -0.03160858 -0.0965021
0003a0 3b e9 10 be 27 b5 a4 3d d5 c5 04 bc 3b 87 ba 3c
       -0.1415147 0.080423646 -0.008103807 0.022769561
0003b0 9d 5e 39 3e 27 96 99 3d bf 97 8a 3d 75 35 cd 3d
       0.18102498 0.074993424 0.067672245 0.10019962
0003c0 6d 5d 07 bc e1 2c b3 bd ae 96 98 bc f4 07 a9 3d
       -0.008262021 -0.08748794 -0.018626537 0.0825347
0003d0 ea 8a 61 bd da 6a b1 3d 5e 54 95 3d a1 4e 97 bc
       -0.05506412 0.086629584 0.072914824 -0.01847011
0003e0 3d f8 80 bd bd 1f ff bc 21 9e 1b be 69 25 af 3d
       -0.06297348 -0.031143064 -0.1519704 0.08552057
0003f0 a6 f2 16 3c 74 e5 9c bd e3 d6 04 bd d5 e5 12 bd
       0.009213125 -0.07660952 -0.032431494 -0.035863716

classifer.1.bias f4 [10]
000000 de 00 c3 3d 79 95 b5 bd 7d af 94 3e ad 64 3a bc
       0.0952165 -0.088664 0.29040137 -0.011376542
000010 e7 cd ed be 34 50 14 3e e2 9f 9b 3e ac 74 ba 3d
       -0.46446154 0.1448372 0.30395418 0.09104285
000020 9e 88 68 bd 06 27 84 be
       -0.056770913 -0.25811023
